calculator/MNIST.App/mynet.onnx (onnx, 172334 bytes, 6 tensors)

fc.weight f4 [16, 1568]
-0.07564899 -0.08494343 -0.13785759 -0.39297846 0.2562448 0.47639468 -0.037378255 -0.04385002
-0.47390687 -0.18583094 -0.7721616 -0.36447313 -0.17874855 -0.09230478 0.297865 -0.048140347
0.102212414 0.11020503 -0.59337115 0.20790249 0.5104667 0.07111757 -0.02178514 0.18755259
0.58439225 -0.56616634 0.27282143 0.39324856 -0.2638871 -0.20016699 0.39258122 0.34331924
-0.006428554 0.019180477 0.37194398 0.16680115 0.1488123 -0.016808046 -0.78109705 -0.8954191
-0.4274947 -0.041362993 0.18752886 0.4757872 0.03428373 -0.62861073 -1.2723318 -0.67918974
-0.18779251 0.105744004 0.13239267 0.34352505 0.08239909 0.5438962 0.22398528 0.05241226
0.183587 0.14074425 0.5486137 0.21018715 -0.37023434 0.42018875 0.21484761 0.28122604
0.04439212 -0.5040048 -0.55537736 -0.71102846 -0.3160483 0.31331956 0.18841018 -0.15702066
-0.24296615 1.074005 -0.0030837022 0.4238572 0.30477792 -0.071359426 0.08034212 -0.3773327
1.0762815 0.014043929 0.19906698 0.27132112 0.21860594 0.18213446 -0.6820014 -0.8808525
-0.6648384 -0.009834812 -0.49135825 0.24449468 0.08580924 -0.43237075 -0.35013962 -0.054358326
-0.31677604 -0.099950135 -0.022794066 -0.23738281 -0.15334742 -0.42739037 -0.3201408 0.12174449
0.011583603 -0.6603938 -0.7039512 -0.19793247 0.025190063 -0.03690379 -0.022571461 0.4915864
-0.31088555 -0.31418085 -0.43911773 -0.05948753 0.46716243 0.19100821 -0.14642288 0.24930118
0.012082034 0.07404619 -0.4961481 -0.9600201 -0.49625772 -0.013262164 -0.05720713 0.022062086
-0.10831449 -0.26112434 0.09129001 0.010832769 -0.5477428 -0.33845624 -0.12450898 0.029877348
0.4437131 0.39879468 0.17179923 -0.31758708 -0.121554375 -0.110169046 -0.36119917 0.11365068
-0.06648183 -0.16199353 -0.087472126 -0.13526878 -0.20480347 -0.2517258 0.33270508 -0.07739242
-0.09573298 -0.06298093 -0.15432276 0.064190894 0.26588812 -0.06675466 0.45424852 0.30424204
-0.24313948 -0.092762135 -0.1556259 0.13177337 0.3085205 0.42434785 0.8458787 0.72280854
0.0020332483 0.22319897 -0.37247455 -0.08566526 0.31937447 -0.18448208 -0.16138782 0.14447275
-0.28914234 -0.3386389 -0.31916577 -0.6744352 0.1639747 -0.044186585 -0.07453231 -0.20736067
-0.50338644 -0.7900007 -0.5180748 -0.5106682 -0.24196692 -0.18548816 -0.24838431 -0.09983028
-0.4113446 -0.49339068 0.10293434 -0.004650148 -0.11619957 -0.055135008 -0.01943163 -0.08273786
-0.034323428 -0.12232553 -0.08012673 0.17945966 -0.03295936 0.13442026 -0.16501598 -0.65411764
-0.0029091195 0.24739653 0.16009627 -0.019810816 -0.13513714 -0.23504536 -0.55067736 -0.30862173
0.16054542 0.13634787 -0.050604355 0.37743175 -0.09960624 -0.5394877 -0.5046343 -0.18364106
-0.047469806 -0.162784 0.16956915 -0.9562997 -0.70598406 -0.072853185 -0.08305429 0.008939762
0.037775986 0.15625493 0.71667343 0.1603696 0.061939266 -0.029400676 -0.17026651 0.07783608
0.26011986 0.38926294 0.18664865 0.06849134 0.34999722 0.06550934 -0.29297912 -0.7784377
0.13845062 0.046601694 0.033284232 0.22626786 -0.26477382 -0.67145556 -0.025854338 0.039076295
00000000: dced 9abd d2f6 adbd 8a2a 0dbe 7934 c9be
00000010: 8532 833e 01ea f33e f119 19bd 149c 33bd
00000020: eca3 f2be 774a 3ebe 62ac 45bf 399c babe
00000030: dc09 37be 4a0a bdbd c381 983e d02e 45bd
00000040: be54 d13d 2db3 e13d 2ce7 17bf 64e4 543e
00000050: f2ad 023f 17a6 913d c076 b2bc c90d 403e
00000060: bb9a 153f 47f0 10bf 40af 8b3e e057 c93e
00000070: 361c 87be 93f8 4cbe 6800 c93e 8ac7 af3e
00000080: 9fa6 d2bb 6020 9d3c 716f be3e eccd 2a3e
00000090: 4062 183e 07b1 89bc faf5 47bf 303a 65bf
000000a0: 96e0 dabe 3e6c 29bd 9107 403e 619a f33e
000000b0: 196d 0c3d a2ec 20bf c5db a2bf 61df 2dbf
000000c0: ae4c 40be 5090 d83d f291 073e 84e2 af3e
000000d0: dbc0 a83d c83c 0b3f 665c 653e 3dae 563d
000000e0: 3bfe 3b3e 431f 103e f371 0c3f 4d3b 573e
000000f0: 5b8f bdbe fb22 d73e 0301 5c3e dcfc 8f3e
00000100: 83d4 353d 7506 01bf 362d 0ebf f605 36bf
00000110: 15d1 a1be 6c6b a03e 99ee 403e 06ca 20be
00000120: 1ecc 78be ff78 893f f017 4abb d003 d93e
00000130: da0b 9c3e e424 92bd 698a a43d c031 c1be
00000140: 98c3 893f 8218 663c 37d8 4b3e 9aea 8a3e
00000150: 3cda 5f3e 7581 3a3e a597 2ebf 8d7f 61bf
00000160: d932 2abf 3122 21bc 4f93 fbbe d05c 7a3e
00000170: c1bc af3d b35f ddbe 8045 b3be d6a6 5ebd
00000180: 7830 a2be a8b2 ccbd 9fba babc 7b14 73be
00000190: 1b07 1dbe e9d2 dabe 7fe9 a3be 2d55 f93d
000001a0: 27c9 3d3c 910f 29bf 2536 34bf cfae 4abe
000001b0: 645b ce3c 6e28 17bd c9e7 b8bc 36b1 fb3e
000001c0: 642c 9fbe 50dc a0be 0ad4 e0be 32a9 73bd
000001d0: ea2f ef3e a897 433e e1ef 15be cf48 7f3e
000001e0: b9f3 453c 87a5 973d 2007 febe e1c3 75bf
000001f0: 7e15 febe 8c49 59bc 0652 6abd 8cbb b43c
00000200: fdd3 ddbd 17b2 85be 42f6 ba3d ed7b 313c
00000210: df38 0cbf 234a adbe 90fe febd 57c1 f43c
00000220: 5d2e e33e d12e cc3e 23ec 2f3e c69a a2be
00000230: 80f1 f8bd 4fa0 e1bd 19ef b8be b0c1 e83d
00000240: a027 88bd a2e1 25be 9624 b3bd e683 0abe
00000250: 00b8 51be 34e2 80be 5258 aa3e eb7f 9ebd
00000260: a70f c4bd 25fc 80bd c906 1ebe 8476 833d
00000270: 7d22 883e abb6 88bd 4393 e83e 9dc5 9b3e
00000280: 8ef9 78be 13fa bdbd 655c 1fbe 99ef 063e
00000290: 66f6 9d3e 1f44 d93e 828b 583f fb09 393f
000002a0: 3f40 053b 458e 643e fcb4 bebe 4571 afbd
000002b0: 0d85 a33e dfe8 3cbe d942 25be aaf0 133e
000002c0: 770a 94be 1462 adbe b269 a3be c9a7 2cbf
000002d0: fce8 273e fefc 34bd 65a4 98bd 5b56 54be
000002e0: efdd 00bf 7c3d 4abf 8da0 04bf 27bb 02bf
000002f0: 2dc6 77be 9cf0 3dbe 7558 7ebe d173 ccbd
00000300: c29b d2be b49d fcbe 3dcf d23d 4560 98bb
00000310: 0afa edbd 3fd5 61bd 152f 9fbc 7872 a9bd
00000320: b996 0cbd cf85 fabd 7c19 a4bd 46c4 373e
00000330: 6500 07bd 77a5 093e f3f9 28be 4174 27bf
00000340: eda6 3ebb 8455 7d3e 47f0 233e 4b4a a2bc
00000350: 6461 0abe bbaf 70be 31f9 0cbf ab03 9ebe
00000360: 0566 243e c79e 0b3e 8346 4fbd bc3e c13e
00000370: 5bfe cbbd de1b 0abf b72f 01bf 670c 3cbe
00000380: b36f 42bd d9b0 26be 89a3 2d3e 0fd0 74bf
00000390: 5fbb 34bf 0d34 95bd 5e18 aabd 1478 123c
000003a0: feba 1a3d 4b01 203e e977 373f ee37 243e
000003b0: 07b4 7d3d b0d9 f0bc 585a 2ebe 8668 9f3d
000003c0: 6e2e 853e 794d c73e d320 3f3e 3045 8c3d
000003d0: d632 b33e c329 863d 5c01 96be b147 47bf
000003e0: 00c6 0d3e 6be1 3e3d 0c55 083d c3b2 673e
000003f0: 6f90 87be 83e4 2bbf 7acc d3bc 770e 203d

fc.bias f4 [16]
0.14662339 0.49996617 -0.026793433 0.02366464 0.09172773 0.0013348319 -0.05345888 -0.0233191
-0.056648463 -0.060048312 -0.06315767 0.86374474 -0.26014173 -0.28626987 -0.34629744 -0.42463842
00000000: 7124 163e 91fb ff3e e77d dbbc 59dc c13c
00000010: c0db bb3d 87f5 ae3a b3f7 5abd b207 bfbc
00000020: 3808 68bd 38f5 75bd cf58 81bd 601e 5d3f
00000030: 4c31 85be f791 92be e64d b1be 356a d9be

33 f4 [16, 1, 5, 5]
0.0013768568 0.0010324751 0.0014321636 0.0023547215 0.0011598553 0.0005613591 -0.00013201583 -0.0010236437
-0.0013085407 0.0020081566 0.0010500267 -0.0004793426 -0.0005721188 -0.0016254379 0.0008529932 -0.002258743
-0.0025599876 -0.0021023029 -0.0010046087 0.0012737174 -0.0028336039 -0.00092065684 0.0010797122 0.0014587985
0.0004959234 0.0045043617 0.0032774776 -0.00074799376 -0.003250788 0.0010054411 0.00065271807 -0.0020496123
-0.0032237186 -0.0012957789 0.0037238938 -0.0026457924 -0.005727409 -0.0026974536 -0.0028447472 -0.00210485
-0.003668492 -0.00082000165 0.0006650279 -0.0023567616 -0.004252033 -0.001144131 0.0029330852 0.0023673929
0.00089793274 -0.0009080319 -0.0022294805 -0.0021285545 0.001054971 -0.0011824451 -0.001994749 -0.0032332437
0.0004472736 0.0019551644 0.0008035382 0.0013068524 -0.0042714085 -0.0004041038 0.002885351 -0.0011023436
-0.00083705125 -0.003053399 -0.00016302521 0.003411909 0.0013179869 -0.00036894478 -0.0032624698 -0.002242489
-0.0010354794 0.0014166959 -0.001578458 0.0006645794 5.1592982e-05 -0.00029766408 6.466481e-05 0.00058718194
0.001305493 0.00067431066 -1.7795048e-05 0.00026049433 0.000107042084 0.00028274136 0.001029627 0.00051775825
0.0002357365 -0.00042495344 0.00074730814 0.000853233 0.0005724271 -7.6497505e-05 -0.0007178776 0.0013632418
0.0010997767 -0.0006053943 -0.0002991491 -0.00035489132 -7.2752605e-06 0.0018233452 0.0021302863 0.002090432
0.0031629228 -0.004703556 -0.003372083 -0.00021495878 0.00059834943 0.00083078136 7.050516e-05 -0.006374595
-0.0055853464 -0.0036952076 0.0010989022 0.0037506875 0.0022983057 -0.0017379726 -0.004067278 -0.0010212942
0.00038130124 0.0012170561 0.0018759483 0.00025291488 -0.0010860433 -0.001914749 -0.0021905913 -0.0019889392
-0.0022539338 -0.0018493229 -0.0010820673 0.00054103055 0.00082944887 0.00029485722 0.0015462154 -0.0005102085
0.0018560779 0.0020248478 0.001479871 0.0021293033 0.0016156532 0.00096396386 -0.0014943414 -0.00035791847
-0.0010785841 0.00085714 -0.00026422192 -0.0012084381 -0.0005116891 -0.0003117214 -0.0016331173 -0.0007213892
0.0020169483 0.00166184 -0.0007240449 -0.004536074 -0.0041547664 -0.0037476972 -0.0026360396 -0.0032664903
0.0024428607 0.0015040846 -0.00034792395 -0.0028603957 -0.0009272391 0.0030784563 0.0013774543 0.0008724264
-0.002103018 -0.0020446905 -0.00028329474 0.0013794975 0.0008800688 0.0011489589 -0.00038987215 -0.00012113384
-0.001700181 -0.0022447945 -0.0013926603 -0.0031636367 -0.0013643687 -0.003399366 -0.0007655156 0.0007432818
0.00045662443 -0.0035674784 -0.0026161717 0.001228496 0.0006221207 0.00128697 -0.0024089739 0.00047776612
0.0015023027 0.0011847375 0.0017873193 -0.0022720385 -0.0019351483 -0.0008592428 0.002552203 0.0011515446
6.758865e-05 0.00033842563 0.0009515637 -0.0015004092 0.0011126045 -0.0015472231 -0.00019632831 0.0009624965
0.0010043365 0.0010792438 -0.0010469281 0.00051912246 0.0008954148 0.0024757795 -0.0012980341 -0.0005151191
0.0002195966 0.0003728685 0.0027445203 -0.0001723327 -0.0024680274 -0.0014914289 -0.0010053697 0.002135789
0.0017112215 -0.0060794144 -0.0024523549 0.000402993 0.002543157 0.0008301752 -0.0047788755 0.0040469994
0.0057230517 0.00037750264 -0.0014195044 0.0008233205 0.0059120134 -0.0006638716 -0.0048665283 -0.0021641536
0.002084541 0.0013411867 -0.003504838 -0.0048844973 -0.00015794268 0.0009305087 -0.001476285 -0.0017259131
0.0025695346 0.0010093173 0.002430649 -0.0020660541 -0.005739789 -0.0029172655 -3.0693318e-05 0.0015245533
00000000: a677 b43a 1e54 873a 70b7 bb3a ac51 1a3b
00000010: 4906 983a 2c28 133a bb6d 0ab9 c82b 86ba
00000020: 5783 abba 479b 033b 0da1 893a 4650 fbb9
00000030: 3efa 15ba a50c d5ba 689b 5f3a 6b07 14bb
00000040: 77c5 27bb cac6 09bb 13ad 83ba ddf2 a63a
00000050: fcb3 39bb 3c58 71ba 2185 8d3a 2835 bf3a
00000060: db00 023a 5399 933b f3ca 563b 0315 44ba
00000070: 2c0b 55bb 01c9 833a 2b1b 2b3a ca52 06bb
00000080: 0645 53bb 20d7 a9ba 920c 743b 0865 2dbb
00000090: fdac bbbb c3c7 30bb f06e 3abb 86f1 09bb
000000a0: 156b 70bb 61f5 56ba 4455 2e3a e673 1abb
000000b0: a354 8bbb aaf6 95ba 0139 403b 4326 1b3b
000000c0: 3f63 6b3a fd08 6eba 7a1c 12bb 387f 0bbb
000000d0: f446 8a3a 46fc 9aba 56ba 02bb d4e4 53bb
000000e0: 0c80 ea39 3722 003b 89a4 523a b14a ab3a
000000f0: 2cf7 8bbb e5dd d3b9 2818 3d3b 837c 90ba
00000100: 8f6d 5bba 891b 48bb bff1 2ab9 569a 5f3b
00000110: 4dc0 ac3a ee6e c1b9 29cf 55bb b9f6 12bb
00000120: ecb8 87ba 6db0 b93a 43e4 ceba 2b37 2e3a
00000130: 8b65 5838 cc0f 9cb9 a89c 8738 1ded 193a
00000140: 131d ab3a 39c4 303a 9346 95b7 f592 8839
00000150: c87b e038 e73c 9439 8df4 863a 2bba 073a
00000160: 0930 7739 49cc deb9 00e7 433a 7fab 5f3a
00000170: ef0e 163a 496d a0b8 f32f 3cba ceae b23a
00000180: 6226 903a 53b3 1eba 1dd7 9cb9 b510 bab9
00000190: 031e f4b6 50fd ee3a 469c 0b3b a1ff 083b
000001a0: 0a49 4f3b 4a20 9abb 2afe 5cbb 8f66 61b9
000001b0: 8dda 1c3a cbc8 593a 2bdc 9338 fbe1 d0bb
000001c0: 4805 b7bb 4c2b 72bb 0a09 903a 18ce 753b
000001d0: 2c9f 163b afcc e3ba cd46 85bb f2dc 85ba
000001e0: 63e9 c739 a085 9f3a 61e2 f53a a999 8439
000001f0: 9159 8eba 51f8 faba 0690 0fbb dd58 02bb
00000200: bcb6 13bb fb64 f2ba 27d4 8dba f2d3 0d3a
00000210: 5f6f 593a 1197 9a39 61aa ca3a 83bf 05ba
00000220: a447 f33a 4fb3 043b 3bf8 c13a c88b 0b3b
00000230: 53c4 d33a 85b2 7c3a c7dd c3ba 01a7 bbb9
00000240: 475f 8dba b1b1 603a 4487 8ab9 7464 9eba
00000250: e022 06ba 8a6e a3b9 530e d6ba 9c1b 3dba
00000260: c72e 043b 19d2 d93a d5cd 3dba 59a3 94bb
00000270: b524 88bb ed9b 75bb 68c1 2cbb 9d12 56bb
00000280: 6718 203b b424 c53a 9069 b6b9 7a75 3bbb
00000290: f611 73ba edbf 493b b28b b43a 8bb3 643a
000002a0: cad2 09bb 3700 06bb 2d87 94b9 41d0 b43a
000002b0: 6bb4 663a aa98 963a c167 ccb9 3c09 feb8
000002c0: 9cd8 deba 671d 13bb ed89 b6ba 0455 4fbb
000002d0: 9ed4 b2ba e6c7 5ebb e2ac 48ba ccd8 423a
000002e0: 1867 ef39 5bcc 69bb 1474 2bbb 7c05 a13a
000002f0: d015 233a 8caf a83a e0df 1dbb af7c fa39
00000300: eae8 c43a 3249 9b3a 7c44 ea3a 7be6 14bb
00000310: cda4 fdba cf3e 61ba dc42 273b 6def 963a
00000320: 61be 8d38 b86e b139 5c72 793a 61a9 c4ba
00000330: d0d4 913a 31cc caba 7bdd 4db9 0c50 7c3a
00000340: f1a3 833a 6a75 8d3a 1439 89ba b815 083a
00000350: 45ba 6a3a b040 223b cc22 aaba 0f09 07ba
00000360: 8343 6639 907d c339 69dd 333b 35b4 34b9
00000370: a1be 21bb 0d7c c3ba 9cc6 83ba 98f8 0b3b
00000380: 114b e03a d335 c7bb b0b7 20bb ce48 d339
00000390: 18ab 263b 1da0 593a 1d98 9cbb b19c 843b
000003a0: 7088 bb3b 8ceb c539 aa0e baba 1ad4 573a
000003b0: 90b9 c13b ab07 2eba 6677 9fbb 79d4 0dbb
000003c0: cb9c 083b c2ca af3a 6db1 65bb 220e a0bb
000003d0: 6a9d 25b9 62ed 733a e87f c1ba 0938 e2ba
000003e0: a365 283b 124b 843a 864b 1f3b a366 07bb
000003f0: d714 bcbb 982f 3fbb b3bc 00b8 85d3 c73a

34 f4 [16]
-0.9717561 0.15670937 0.20596334 -1.4077832 0.10310392 -0.12685397 0.2650835 -0.05979207
-1.2168753 -0.51057154 -0.94083405 0.22750014 0.38050237 0.107721746 0.35535666 0.52925515
00000000: 02c5 78bf 6c78 203e 0ee8 523e 3d32 b4bf
00000010: 2628 d33d 02e6 01be 06b9 873e 88e8 74bd
00000020: 92c2 9bbf d1b4 02bf 80da 70bf ccf5 683e
00000030: 35d1 c23e 389d dc3d 4ff1 b53e 447d 073f

36 f4 [32, 16, 5, 5]
0.07394907 -0.06313239 -0.02469324 0.009559123 -0.0016879498 0.064871676 -0.101369545 -0.01231528
0.03211056 -0.02507401 -0.02689597 -0.039121356 0.0017333209 0.00031438548 -0.03318333 -0.01929001
-0.06135801 -0.012172505 0.013691661 -0.039120123 0.053091105 -0.04784969 0.017281475 -0.005469563
-0.04509542 0.010594513 -0.0041095307 0.027176106 0.077724434 0.14981867 -0.040553447 0.0073183356
0.016361699 0.05826168 0.07157144 -0.023755087 -0.030383224 0.01716505 0.014000996 0.06174106
0.024105266 0.045368485 0.0016125904 -0.011775958 0.0015150605 -0.005534737 -0.01792244 -0.03173267
0.004521375 0.02197697 0.009984644 -0.009183798 -0.032944854 -0.031162078 -0.06899181 0.048942324
0.026514169 0.009288831 0.008779578 -0.05335217 0.026510984 0.010853625 -0.023730515 0.05380736
0.048328202 0.030756291 0.05509128 -0.06639269 0.024681268 0.06488623 0.017293012 0.057831768
0.008164655 0.025816768 0.042284686 -0.033198357 0.027320549 0.06966687 -0.021591695 -0.043861378
0.0035567125 0.0657319 0.049889892 -0.078411356 -0.021773713 0.020101015 0.042088218 0.012264001
-0.055290267 -0.006696483 0.04685611 0.07419036 0.022120185 -0.04651527 0.011206343 0.047066797
0.07219893 0.0011425519 -0.0054286993 0.015660914 -0.040410258 -0.052693263 -0.032505248 0.005153363
0.051199403 -0.017363057 -0.031434312 0.016709061 0.025243994 0.07227702 -0.0057134866 -0.021709792
0.08025385 0.037531693 0.000651549 -0.0117351115 -0.026090706 0.008664858 -0.015557351 -0.07299924
0.01906128 -0.062493615 0.00086689106 -0.008398218 0.004835633 0.028104192 -0.018862639 -0.009971284
-0.027517581 -0.023266368 -0.032308478 0.003421262 -0.0015282533 -0.034081362 0.011994357 -0.0068561006
0.027356116 0.01880662 0.034561165 0.042901248 0.025550075 0.015100362 -0.004794835 -0.025607979
-0.0014660115 -0.026713114 -0.015771748 -0.0014447996 -0.010265944 0.021823682 -0.042205546 -0.036368575
-0.015284868 -0.02566221 0.014664358 -0.03887432 0.017068155 -0.033616845 -0.068286 0.026935525
-0.11274706 0.016572725 0.024498407 0.02216152 0.037982486 0.04063446 0.02713109 0.00012122727
0.04784776 0.04896858 -0.022616826 -0.0003455894 0.0010331769 0.02570026 0.070477135 0.039183453
-0.048171517 -0.07970636 -0.04021358 -0.057093624 0.05374055 -0.06140276 -0.021146327 0.040528733
-0.0603943 0.02883122 -0.1343946 -0.03352518 0.046938285 0.009392962 -0.019687746 -0.08884113
-0.01577935 0.060184363 0.008972457 -0.02023814 -0.030022275 0.013939566 0.037313458 0.0147855375
0.07386979 0.055357978 -0.04462048 -0.030963697 -0.023769896 0.068608426 0.024201037 -0.09128081
-0.019899638 -0.030300101 0.03740694 0.0070814653 -0.11875165 0.030464001 0.004768797 0.031274766
-0.0077944985 -0.084774874 0.011281478 0.007018107 0.038436823 -0.01177978 -0.048565853 0.010183317
-0.015178125 -0.041648667 0.034680966 0.036896598 -0.01037939 -0.04215256 -0.019423096 -0.006580855
-0.013692797 -0.04172491 -0.0236285 -0.03648209 0.06767351 -0.007106921 -0.014200381 0.009347366
0.008657182 0.06406137 -0.026104087 0.014329287 -0.007061791 0.009583944 0.03833696 0.0005639232
0.005708303 0.0020131352 0.047905505 -0.02911995 -0.029062642 0.04041218 0.023038296 0.023034027
00000000: 9c72 973d 8e4b 81bd 7a49 cabc de9d 1c3c
00000010: 323e ddba 71db 843d d69a cfbd 07c6 49bc
00000020: 5d86 033d 0368 cdbc f054 dcbc b73d 20bd
00000030: 9930 e33a 1bd4 a439 3eeb 07bd 1506 9ebc
00000040: 8952 7bbd 306f 47bc fd52 603c 6c3c 20bd
00000050: 0f76 593d 09fe 43bd e191 8d3c 053a b3bb
00000060: fab5 38bd 9c94 2d3c 3ea9 86bb 6da0 de3c
00000070: fd2d 9f3d 116a 193e 5f1b 26bd a6ce ef3b
00000080: f808 863c cda3 6e3d 0c94 923d 079a c2bc
00000090: 3de6 f8bc b89d 8c3c 6f64 653c 32e4 7c3d
000000a0: 6878 c53c 4ed4 393d 8e5d d33a f3ef 40bc
000000b0: ff94 c63a bd5c b5bb 15d2 92bc 1efa 01bd
000000c0: 0b28 943b 0c09 b43c a296 233c a477 16bc
000000d0: 2ff1 06bd 9d47 ffbc 944b 8dbd bf77 483d
000000e0: 3e34 d93c 2e30 183c 38d8 0f3c ce87 5abd
000000f0: 902d d93c 67d3 313c 7f66 c2bc 1b65 5c3d
00000100: cbf3 453d 9ef4 fb3c 65a7 613d e4f8 87bd
00000110: 5f30 ca3c 12e3 843d 13aa 8d3c 01e1 6c3d
00000120: 0cc5 053c b07d d33c b532 2d3d 00fb 07bd
00000130: 58cf df3c 81ad 8e3d 11e1 b0bc fda7 33bd
00000140: bc17 693b 729e 863d 5859 4c3d 2296 a0bd
00000150: c95e b2bc e2aa a43c b264 2c3d f3ee 483c
00000160: 0c78 62bd 2c6e dbbb 31ec 3f3d 1ef1 973d
00000170: 6435 b53c cc86 3ebd cf9a 373c 1dc9 403d
00000180: 08dd 933d aec1 953a 3be3 b1bb 514b 803c
00000190: 3a85 25bd e4d4 57bd 3924 05bd 8bdd a83b
000001a0: 77b6 513d f83c 8ebc 44c1 00bd 71e1 883c
000001b0: 7ecc ce3c f905 943d 3338 bbbb bcd8 b1bc
000001c0: 215c a43d d5ba 193d b7cc 2a3a a044 40bc
000001d0: 2dbc d5bc 0cf7 0d3c 42e4 7ebc a080 95bd
000001e0: 6726 9c3c 4ef9 7fbd 1340 633a ae98 09bc
000001f0: 3b74 9e3b c33a e63c d285 9abc 995e 23bc
00000200: 8d6c e1bc 1c99 bebc e555 04bd 4037 603b
00000210: ac4f c8ba e698 0bbd fb83 443c 24a9 e0bb
00000220: ef19 e03c 5710 9a3c 0290 0d3d 38b9 2f3d
00000230: 644e d13c 8267 773c fe1d 9dbb d3c7 d1bc
00000240: 2f27 c0ba 76d5 dabc c133 81bc 6e5f bdba
00000250: 7d32 28bc 94c7 b23c b9df 2cbd 37f7 14bd
00000260: 626d 7abc 8e39 d2bc c742 703c ae3a 1fbd
00000270: 84d2 8b3c d1b1 09bd 88d9 8bbd e4a7 dc3c
00000280: eee7 e6bd 86c3 873c e2b0 c83c 138c b53c
00000290: 8693 1b3d 5270 263d 0542 de3c 653b fe38
000002a0: 03fc 433d 4793 483d ec46 b9bc 3930 b5b9
000002b0: aa6b 873a 5a89 d23c 5156 903d d47e 203d
000002c0: 7f4f 45bd 173d a3bd ffb6 24bd 01db 69bd
000002d0: 0d1f 5c3d 7681 7bbd 103b adbc 7501 263d
000002e0: 0360 77bd 732f ec3c bd9e 09be b351 09bd
000002f0: 5c42 403d f0e4 193c 3248 a1bc 57f2 b5bd
00000300: b243 81bc e183 763d 3601 133c 75ca a5bc
00000310: 46f1 f5bc c762 643c ffd5 183d 0a3f 723c
00000320: 0b49 973d 0cbf 623d f7c3 36bd 94a7 fdbc
00000330: 16b9 c2bc 9382 8c3d 4141 c63c 6ff1 babd
00000340: 9104 a3bc eb37 f8bc 0538 193d a30b e83b
00000350: 1134 f3bd a48f f93c 9243 9c3b f819 003d
00000360: fe68 ffbb 739e adbd f3d5 383c 26f8 e53b
00000370: ee6f 1d3d faff 40bc fdec 46bd edd7 263c
00000380: acad 78bc cb97 2abd a10d 0e3d e320 173d
00000390: 510e 2abc 2aa8 2cbd 2f1d 9fbc 37a4 d7bb
000003a0: c157 60bc bde7 2abd 8e90 c1bc 3e6e 15bd
000003b0: 6998 8a3d 2de1 e8bb b7a8 68bc b225 193c
000003c0: dad6 0d3c 9c32 833d 3dd8 d5bc 63c5 6a3c
000003d0: 9966 e7bb fa05 1d3c 3707 1d3d 3fd4 133a
000003e0: b70c bb3b ceee 033b 9038 443d f68c eebc
000003f0: c714 eebc 3e87 253d cfba bc3c dbb1 bc3c

37 f4 [32]
-0.7517422 -0.076476544 -0.24089617 -0.5289399 -0.12428409 -2.218518 -0.17299378 -0.57538736
-0.008866847 -0.6751378 -1.0475044 -1.5956345 -0.15193295 -1.6683583 -0.39053875 -1.520666
-0.7201622 -1.0470511 -0.031448245 -2.3312411 -0.28319225 -0.8098452 -0.5834833 -0.05214852
-0.28266883 -1.1119586 -0.042630732 -0.45399356 0.11847675 0.07708204 -0.32482257 -0.3790008
00000000: 2d72 40bf bc9f 9cbd 7cad 76be 9b68 07bf
00000010: a888 febd 33fc 0dc0 4825 31be 964c 13bf
00000020: 4046 11bc d5d5 2cbf a014 86bf c03d ccbf
00000030: 5094 1bbe c48c d5bf b2f4 c7be 2fa5 c2bf
00000040: 8d5c 38bf c505 86bf e0cf 00bd 0e33 15c0
00000050: 93fe 90be 0452 4fbf 295f 15bf b099 55bd
00000060: f8b9 90be a954 8ebf 909d 2ebd d871 e8be
00000070: f0a3 f23d 30dd 9d3d 254f a6be 650c c2be
