train/mynet.onnx (onnx, 172334 bytes, 6 tensors)

fc.weight f4 [16, 1568]
0.006335015 -0.07523715 -0.37589508 -0.12349744 -0.04491609 0.23897281 0.17338471 -0.12248181
0.008227321 -0.1761906 -0.24919033 -0.29594076 0.06805868 -0.52771664 -0.049213585 0.20616207
0.35860804 -0.5254082 -0.03501167 0.40101302 -0.3159052 0.21572714 0.30427027 0.5782969
-0.628164 0.30326054 -0.1093971 0.15129682 0.005073007 0.057758782 -0.08583474 -0.06703059
-0.5586728 0.04390439 0.2078162 0.14656007 0.015565672 -0.9870573 -0.7170635 -0.85027105
-0.06844642 -0.033192836 0.011725348 -0.14075552 0.045057155 0.22084136 0.25945964 0.15197852
0.16817386 -0.0012800266 0.25663945 -0.25698623 -0.0555015 -0.08275327 -0.04664585 -0.033403445
-0.24068692 0.17469251 0.405113 -0.40495488 -0.5797707 -0.817758 -0.5642586 -0.047566626
-0.31009254 -0.5406979 -0.16351 -0.029338257 -0.36239618 -0.17441493 -0.33907834 -0.26920128
-0.70519865 0.8207001 0.067931525 0.8485411 0.2543293 -0.32384408 0.07637632 -0.33331797
0.28715363 0.208198 0.18370791 -0.12169113 0.043326985 -0.003976446 0.17934029 -0.83568895
-0.7806122 -0.26148924 -0.3877483 0.062657714 0.30444235 0.3714486 -0.59285223 -0.8619381
-0.65084237 -0.53251797 0.02716479 0.10715241 -0.037096143 0.09416174 0.22171606 -0.5046162
-0.07201063 0.045988202 -0.045501977 -0.14239706 -0.45055804 -0.7550602 -1.0803493 -0.2973075
0.13839673 0.13011229 0.22432423 -0.4733372 -0.050024908 -1.0334096 -0.1731135 0.24654219
-0.064210266 -0.10142384 0.45192882 0.48221958 0.26307595 -0.21525528 0.24634601 0.10507154
-0.02919316 0.83852494 0.692515 0.28491297 0.09739692 -0.20270507 -0.18635884 -0.38827604
-0.3987739 0.048497442 0.030584648 -0.25040355 -0.23669279 0.097854234 0.08935697 -1.1380543
-1.0774773 -0.22047879 -0.0695975 -0.07101895 -0.25372642 -0.37136072 0.19347373 -0.4379255
0.150111 0.75979525 -0.6059253 -0.18027276 -0.28753686 0.3296056 0.11553601 0.19123396
0.5618084 -0.111843996 -0.0075957654 0.35330212 0.44878265 -0.09007163 -0.37843493 0.28326762
0.07648208 0.0446765 0.30794597 0.061574455 -0.2436838 -0.3830712 -1.1362469 -0.0240566
0.035739932 -0.031028166 0.13790666 -0.5837356 0.013925243 -0.46909007 -0.032035746 -0.12800485
0.34832555 0.21898438 -0.4942339 0.065236844 -0.4785704 0.13983816 0.056953724 0.10226684
-0.3858183 0.3571094 -0.44870812 0.434661 -0.0047328924 -0.116175 -0.06616777 -0.21831618
0.057547055 -0.006457219 -0.008202917 -0.03507362 -0.2055271 0.28205016 0.107040636 0.16679269
-0.056263875 -0.059837464 -0.037886783 0.34368798 0.31694368 0.052801788 0.16741274 -0.008673107
0.13364536 0.24525307 0.47717696 0.096946515 -1.0377208 0.27601382 -0.005271937 0.056762766
-0.1106021 0.257458 0.074647814 -0.21845841 0.12770765 -0.054825388 -0.089892924 -0.028147886
-0.06678788 -0.17661704 -0.22691487 0.024493454 -0.15945096 0.22880383 -0.15014628 -0.38244423
-0.5613124 -0.3332743 0.094118066 0.26562157 0.13171914 -0.06986458 -0.18830273 -0.5144654
-0.031688742 -0.30422783 -0.18015325 -0.27103037 -0.34149495 0.21099542 0.07690773 0.16849358
00000000: f595 cf3b ef15 9abd 5275 c0be 3aec fcbd
00000010: eff9 37bd 4ab5 743e c38b 313e bed7 fabd
00000020: e3cb 063c 4f6b 34be c02b 7fbe 8c85 97be
00000030: 5962 8b3d 7018 07bf 2f94 49bd 261c 533e
00000040: 799b b73e 2781 06bf 6668 0fbd 9451 cd3e
00000050: 54be a1be 93e7 5c3e 50c9 9b3e 440b 143f
00000060: 5bcf 20bf f744 9b3e 960b e0bd 8eed 1a3e
00000070: 783b a63b 7994 6c3d 20ca afbd 5547 89bd
00000080: 2e05 0fbf 17d5 333d c5cd 543e d813 163e
00000090: 2907 7f3c caaf 7cbf 7991 37bf 5dab 59bf
000000a0: a32d 8cbd 36f5 07bd ad1b 403c 3722 10be
000000b0: da8d 383d 3d24 623e e5d7 843e 42a0 1b3e
000000c0: c535 2c3e 91c6 a7ba 3f66 833e b393 83be
000000d0: 8a55 63bd 8c7a a9bd b80f 3fbd 0dd2 08bd
000000e0: a276 76be 98e2 323e f96a cf3e 3f56 cfbe
000000f0: da6b 14bf 9758 51bf 4073 10bf 39d5 42bd
00000100: 73c4 9ebe 2d6b 0abf 2a6f 27be c956 f0bc
00000110: fe8b b9be d499 32be ad9b adbe c0d4 89be
00000120: e687 34bf 6719 523f af1f 8b3d fd39 593f
00000130: 7337 823e e4ce a5be 306b 9c3d a7a8 aabe
00000140: cd05 933e db31 553e ed1d 3c3e 3339 f9bd
00000150: a377 313d d94c 82bb fba4 373e b6ef 55bf
00000160: 33d6 47bf ebe1 85be f286 c6be b052 803d
00000170: dedf 9b3e 832e be3e 2ac5 17bf faa7 5cbf
00000180: 9b9d 26bf 1953 08bf b288 de3c b972 db3d
00000190: 20f2 17bd dfd7 c03d 8909 633e 872e 01bf
000001a0: 4f7a 93bd 205e 3c3d 4860 3abd 89d0 11be
000001b0: 8baf e6be a04b 41bf e348 8abf b038 98be
000001c0: dfb7 0d3e 283c 053e 40b5 653e 4159 f2be
000001d0: ebe6 4cbd c446 84bf aa44 31be 8e75 7c3e
000001e0: ac80 83bd 4db7 cfbd 3763 e73e 7ce5 f63e
000001f0: e4b1 863e e16b 5cbe 2142 7c3e bf2f d73d
00000200: 7e26 efbc 92a9 563f aa48 313f 1de0 913e
00000210: 0978 c73d eb91 4fbe dad4 3ebe 1ecc c6be
00000220: 182c ccbe 41a5 463d a88c fa3c e534 80be
00000230: 985f 72be cd67 c83d c900 b73d c3ab 91bf
00000240: c7ea 89bf 31c5 61be 2289 8ebd 6272 91bd
00000250: 6ee8 81be fe22 bebe fa1d 463e c537 e0be
00000260: b3b6 193e f181 423f ec1d 1bbf 6c99 38be
00000270: 0838 93be 11c2 a83e 259e ec3d d6d2 433e
00000280: add2 0f3f 770e e5bd e6e5 f8bb 04e4 b43e
00000290: d7c6 e53e 7a77 b8bd 39c2 c1be 7408 913e
000002a0: a3a2 9c3d b5fe 363d 18ab 9d3e 7f35 7c3d
000002b0: 3f88 79be e921 c4be 8a70 91bf 5912 c5bc
000002c0: 0964 123d c82e febc 6737 0d3e b26f 15bf
000002d0: b426 643c 932c f0be ea37 03bd b413 03be
000002e0: ba57 b23e 713d 603e 3a0c fdbe e59a 853d
000002f0: 2e07 f5be bc31 0f3e 4f48 693d 4771 d13d
00000300: fa89 c5be 0bd7 b63e 12bd e5be e38b de3e
00000310: 6116 9bbb 29ed edbd f882 87bd 478e 5fbe
00000320: 76b6 6b3d 1497 d3bb 8765 06bc 5ba9 0fbd
00000330: b275 52be e168 903e 1f38 db3d b4cb 2a3e
00000340: f374 66bd 2118 75bd 2c2f 1bbd dff7 af3e
00000350: 7146 a23e b046 583d 3f6e 2b3e a619 0ebc
00000360: 54da 083e 9f23 7b3e 8a50 f43e e58b c63d
00000370: 09d4 84bf af51 8d3e 37c0 acbb 1380 683d
00000380: 5b83 e2bd 89d1 833e f4e0 983d 90b3 5fbe
00000390: cbc5 023e 9690 60bd c819 b8bd 6596 e6bc
000003a0: 16c8 88bd 19db 34be 5f5c 68be 7fa6 c83c
000003b0: 1d47 23be 8d4b 6a3e f2bf 19be bbcf c3be
000003c0: 2bb2 0fbf eea2 aabe f9c0 c03d 8dff 873e
000003d0: 62e1 063e 2915 8fbd 6ed2 40be 01b4 03bf
000003e0: 0ecc 01bd c0c3 9bbe 187a 38be 7ec4 8abe
000003f0: 6dd8 aebe 2f0f 583e cd81 9d3d 9589 2c3e

fc.bias f4 [16]
0.11456989 0.5903309 -0.16719785 0.034346066 0.016515128 -0.10384126 -0.20940487 0.0012856836
0.016216587 -0.061432093 0.13208233 1.2717642 -0.2762465 -0.31439996 -0.11421378 -0.33896312
00000000: 9ea3 ea3d ed1f 173f ea35 2bbe 76ae 0c3d
00000010: bc4a 873c baaa d4bd 3b6e 56be 6284 a83a
00000020: a6d8 843c 38a0 7bbd 9740 073e 2bc9 a23f
00000030: 2e70 8dbe 08f9 a0be eae8 e9bd 938c adbe

33 f4 [16, 1, 5, 5]
-0.20761482 -0.18837899 -0.3709453 -1.1542895 -1.2047061 -0.6003322 -0.94358534 -1.0010003
-0.08637206 -0.19579896 -0.81684774 -0.4167622 0.02259764 0.50401205 0.41016504 -0.7619518
-0.13829286 0.24778041 0.48239866 0.07643708 -0.34883052 0.24835525 0.25457162 0.23252873
0.30453822 -0.11326799 -0.10186327 -0.029566392 0.310145 0.1722312 -0.32583624 -0.008013527
0.038156457 0.37214056 0.14567912 -0.4808081 0.032480046 -0.1557146 0.8227566 -0.10744416
-0.24062116 0.17104368 0.3611536 0.5183008 -0.3427251 -0.006884019 0.2636806 0.2591277
0.18156058 -0.28467587 0.50698245 0.8476855 1.0163049 -0.53258514 -1.2762309 -0.43140116
-0.30085245 -1.2822506 -0.25252512 -1.2721318 -1.1859405 -1.8993284 0.24109942 0.25570455
0.78014797 -0.40702495 0.087902136 1.2291238 1.0354012 0.7227747 1.4454863 0.35612145
-0.70800555 -1.4378309 -0.7819576 -0.6378624 -0.07448804 0.55194837 0.3672836 -0.19257742
-0.1012044 0.38489088 0.8514112 -0.3836867 -0.72292125 1.2350132 1.2897993 -0.81589514
-1.3339367 -0.11798606 0.1390806 -0.8417078 -1.2680173 -0.7554513 0.32091248 -1.7069607
-1.1939282 0.025589028 1.0931357 -0.59362656 -0.083174385 0.2555763 -0.09240713 0.38971493
-0.5113617 0.7445651 -0.5020639 -0.12904428 0.94244295 -0.18161033 -0.6143383 0.38057023
-0.54672456 0.67808545 0.27607256 -0.16183746 1.2523472 -0.9619035 -0.91153425 0.8100163
0.078254685 0.63700074 -0.7131493 -0.50282294 1.1042527 0.023140246 0.41166767 -0.6635969
0.6709533 1.0191114 -0.6150195 0.072752565 0.046851963 1.5406901 -0.9772017 -0.41638315
0.8052152 0.92992586 0.11293382 -1.9381492 -0.2619209 0.8100416 0.2885701 -2.5041952
-0.36797425 -0.49260297 0.49581954 -0.56065226 -0.7526925 2.4508023 -0.22667198 0.1271948
-0.37238157 0.0058945757 -1.7404579 -0.80221516 0.10314682 -0.26161155 2.089477 1.4622136
0.15064898 0.77568686 -0.587508 0.31889263 1.0286427 -0.87769216 0.14235543 -0.5138161
-1.2070525 -0.5779945 -1.199702 -0.74223787 -0.84890676 0.10729417 -0.8508191 0.13080922
0.19663276 0.7331033 0.3346577 0.15253015 0.07286006 -0.14670052 0.3707361 0.069391765
0.58974725 -0.49186933 -0.9656868 -0.4483148 -0.3398819 0.72616154 -0.7985519 -0.8415187
-0.29653633 0.040441155 0.50814193 0.77762187 0.94471914 0.40674803 -0.29445335 0.30942243
0.29074195 -0.7733668 0.37194854 0.3889619 0.65711987 -0.6327936 -0.67596054 -0.2828761
0.38733277 0.55318767 -1.4852958 -1.6043887 -1.2121515 -0.1076337 0.3567952 0.6046406
-0.6371119 -1.5737555 -0.7604678 0.29288793 1.2755378 0.42421713 -0.47905895 -1.2052252
-0.9775887 -0.51905566 -0.6228443 -0.4105932 0.25888604 -0.008941093 -0.8122264 -0.35185212
0.32538736 0.4197031 0.051869094 -0.85265034 -0.18042545 0.30260298 0.37384441 -0.18651426
-0.71140444 0.050283235 0.18432711 -0.14434567 0.28553703 -0.83803946 -0.16127686 -0.13554807
0.031592164 0.041219372 0.20661661 0.58138347 0.1070332 0.047240976 0.29065266 0.23307456
00000000: fb98 54be 6ce6 40be 8bec bdbe c2bf 93bf
00000010: cf33 9abf 5faf 19bf cf8e 71bf c720 80bf
00000020: d6e3 b0bd 867f 48be ef1c 51bf db61 d5be
00000030: b01e b93c ef06 013f 2701 d23e 460f 43bf
00000040: a59c 0dbe 26ba 7d3e f5fc f63e 0b8b 9c3d
00000050: ea99 b2be d750 7e3e 3657 823e 031c 6e3e
00000060: 6fec 9b3e 0cf9 e7bd b19d d0bd 3835 f2bc
00000070: 53cb 9e3e 605d 303e 02d4 a6be 2b4b 03bc
00000080: f249 1c3d 3589 be3e e82c 153e 7b2c f6be
00000090: cc09 053d a673 1fbe 2da0 523f af0b dcbd
000000a0: 6565 76be 1326 2f3e 20e9 b83e 5caf 043f
000000b0: aa79 afbe 5693 e1bb 2501 873e 63ac 843e
000000c0: 04eb 393e 09c1 91be 9ac9 013f eb01 593f
000000d0: 4716 823f 8057 08bf 895b a3bf 9de0 dcbe
000000e0: 5509 9abe ca20 a4bf f94a 81be 37d5 a2bf
000000f0: e6cc 97bf 311d f3bf c4e2 763e b5eb 823e
00000100: c7b7 473f 9365 d0be 0906 b43d ee53 9d3f
00000110: 0788 843f c307 393f b205 b93f 8d55 b63e
00000120: da3f 35bf d80a b8bf 602e 48bf f34a 23bf
00000130: 2f8d 98bd 7d4c 0d3f 990c bc3e 0433 45be
00000140: 4144 cfbd 6b10 c53e 16f6 593f 9572 c4be
00000150: 5e11 39bf ea14 9e3f 2518 a53f 81de 50bf
00000160: 70be aabf ada2 f1bd 256b 0e3e 2a7a 57bf
00000170: 644e a2bf 4265 41bf a44e a43e b07d dabf
00000180: a4d2 98bf 15a0 d13c dfeb 8b3f e9f7 17bf
00000190: 5557 aabd e6da 823e f33f bdbd b788 c73e
000001a0: 9ae8 02bf d29b 3e3f 4287 00bf 2f24 04be
000001b0: f143 713f 0ff8 39be 4645 1dbf 1ada c23e
000001c0: 24f6 0bbf 0297 2d3f 6259 8d3e b8b8 25be
000001d0: ea4c a03f 4f3f 76bf 4f5a 69bf 3a5d 4f3f
000001e0: fe43 a03d 7b12 233f f490 36bf 01b9 00bf
000001f0: 2758 8d3f 9d90 bd3c 1bc6 d23e 7de1 29bf
00000200: 98c3 2b3f 3e72 823f eb71 1dbf 4cff 943d
00000210: d8e7 3f3d 5535 c53f e429 7abf 2c30 d5be
00000220: 9522 4e3f 9f0f 6e3f d949 e73d 4615 f8bf
00000230: 7f1a 86be e35e 4f3f 76bf 933e bc44 20c0
00000240: 1f67 bcbe 7536 fcbe 0fdc fd3e e886 0fbf
00000250: 75b0 40bf f2d9 1c40 b31c 68be 5b3f 023e
00000260: cca8 bebe 4927 c13b 53c7 debf f95d 4dbf
00000270: a43e d33d f3f1 85be feb9 0540 d129 bb3f
00000280: ba43 1a3e 6a93 463f ed66 16bf e545 a33e
00000290: 90aa 833f 6fb0 60bf 9fc5 113e 7489 03bf
000002a0: b280 9abf 73f7 13bf d68f 99bf 4d03 3ebf
000002b0: f451 59bf 0cbd db3d 48cf 59bf daf2 053e
000002c0: 195a 493e a8ac 3b3f 4158 ab3e dd30 1c3e
000002d0: a837 953d a938 16be 1fd1 bd3e 451d 8e3d
000002e0: adf9 163f 4cd6 fbbe 4037 77bf 8489 e5be
000002f0: 0005 aebe b9e5 393f e66d 4cbf c56d 57bf
00000300: 9cd3 97be a0a5 253d 9715 023f 3a12 473f
00000310: 1dd9 713f 4741 d03e 97c2 96be 9e6c 9e3e
00000320: 21dc 943e 5efb 45bf 0a70 be3e 0426 c73e
00000330: 0239 283f c3fe 21bf c00b 2dbf 23d5 90be
00000340: 7b50 c63e b59d 0d3f 2c1e bebf 9c5c cdbf
00000350: c827 9bbf 0f6f dcbd dcad b63e bac9 1a3f
00000360: c419 23bf d270 c9bf 05ae 42bf 68f5 953e
00000370: d344 a33f fd32 d93e 3747 f5be d244 9abf
00000380: 4143 7abf d5e0 04bf b972 1fbf 4639 d2be
00000390: b68c 843e aa7d 12bc 12ee 4fbf f625 b4be
000003a0: 2c99 a63e 53e3 d63e b074 543d 4b47 5abf
000003b0: 73c1 38be c7ee 9a3e 8968 bf3e 98fd 3ebe
000003c0: 9a1e 36bf cbf5 4d3d 3fc0 3c3e 5acf 13be
000003d0: e931 923e c189 56bf c325 25be 1dcd 0abe
000003e0: c966 013d a5d5 283d 4e93 533e 8cd5 143f
000003f0: 3934 db3d c17f 413d 6dd0 943e 19ab 6e3e

34 f4 [16]
0.55606455 -1.0994278 0.048300534 -0.082744956 -1.345152 -1.0220319 0.34939814 -1.6367298
0.61318254 0.43438745 -0.37874445 -0.039080292 -0.05704233 -0.7365194 0.38867056 0.20506918
00000000: 3f5a 0e3f 0dba 8cbf c8d6 453d 3076 a9bd
00000010: f12d acbf f1d1 82bf 50e4 b23e 5d80 d1bf
00000020: 88f9 1c3f 0868 de3e cbea c1be a812 20bd
00000030: 38a5 69bd 898c 3cbf d4ff c63e a8fd 513e

36 f4 [32, 16, 5, 5]
0.06691149 0.045826312 0.03524922 0.030873025 0.04454815 0.013437789 -0.021891147 0.016214045
0.04359109 0.053266548 0.0044912654 -0.0315732 0.015072429 0.014873547 0.057369262 0.012647564
0.016426504 -0.010994365 -0.036981747 -0.016665734 0.022917775 0.042958915 -0.011111308 -0.086386345
-0.011226663 -0.012506432 -0.04891053 -0.048860352 0.013181249 0.004864723 -0.05532649 -0.047524676
-0.012781156 0.05958767 0.07453094 -0.059803087 -0.042692304 0.04140377 0.06657217 0.041061472
-0.05358355 -0.03805241 0.040826447 0.030129781 -0.026996022 -0.057783514 0.023133565 0.06644134
0.028158272 -0.13853729 -0.036942236 0.020219605 0.0494796 0.0068186945 3.163669e-05 0.009229919
0.048117965 -0.04980524 -0.120242804 0.00537701 0.017454213 -0.09068364 -0.0791471 0.0075254017
0.04893907 0.01431178 -0.10161934 -0.12343257 -0.066751584 -0.08612025 0.010320456 0.013116107
0.0073121837 0.029433561 0.0045875874 -0.0640631 0.00987752 0.01363649 -0.05265491 -0.061004873
-0.037071962 -0.013649194 -0.008567314 -0.03899179 -0.020714242 -0.008690395 0.05950539 0.009905758
0.015540919 0.026862757 0.024397632 0.023939807 0.061611675 0.009479813 -0.033360355 0.016216183
0.03615318 -0.025078973 -0.025118511 0.039158273 -0.060936373 0.008567464 0.04208622 -0.012586193
-0.06778486 -0.020425094 0.039471377 0.048980314 -0.059720177 0.039642025 -0.039305042 0.0100062685
-0.010902872 -0.113768645 0.040842567 -0.048597734 -0.015533712 -0.06640228 -0.03848751 -0.009794005
-0.066063926 -0.034158304 -0.07180868 -0.069489226 -0.008217715 0.049198847 0.054708254 -0.04212242
0.001895781 -0.04383896 0.016398853 0.029049478 -0.01432103 -0.04585009 0.07263775 0.0451097
0.01673282 0.005190345 -0.015764726 0.081613325 0.010259092 -0.0465067 0.024445463 0.011680798
0.04960136 -0.0127185555 -0.05334662 -0.058200143 -0.039740883 0.03534252 0.0034397612 -0.0009489724
-0.0052358513 -0.035470724 -0.072188675 0.09797038 0.0697479 0.02153022 -0.01333664 0.0124927685
0.100999475 -0.010425802 -0.042276822 -0.07538869 -0.038243998 0.029610885 -0.058715224 -0.10664966
-0.10018701 -0.1265756 -0.030004308 -0.024878483 0.041788302 0.055715304 0.102472134 -0.089477144
-0.002347802 0.09711793 0.05393961 0.048020743 -0.08185504 -0.011997105 0.0024178098 -0.018873354
-0.021128783 -0.038947638 0.041174687 0.040141053 -0.0031363177 -0.08292084 -0.059068784 -0.021965537
-0.011955409 -0.03014322 -0.047735907 -0.013614567 0.0056278193 -0.0045909705 -0.04401008 -0.092955165
0.024221165 -0.030909915 -0.009056981 -0.074539505 -0.116608605 -0.007960165 0.022321634 -0.042709928
0.004644611 -0.08640141 0.023925906 -0.011127442 -0.057106074 -0.07462943 -0.11852266 0.05631964
-0.025942355 -0.0407227 -0.005838619 -0.0022087516 0.013693812 -0.033513322 0.008909513 0.0303122
0.01500852 -0.08177396 -0.10967515 -0.106992155 -0.01585299 0.0006997063 -0.04132334 -0.08267231
-0.04610504 0.034137577 0.0580872 -0.079480395 -0.06069233 0.0100159375 0.0067088054 -0.018778568
-0.0012637819 0.064469814 0.08019897 0.0658387 0.017033637 -0.05084591 0.02086963 0.093300916
0.11813969 0.00960198 0.035878822 0.06437358 0.07493932 0.007192133 -0.0631 0.00014211012
00000000: e408 893d 5fb4 3b3d 7c61 103d 6de9 fc3c
00000010: 1f78 363d 2c2a 5c3c 1055 b3bc 51d3 843c
00000020: 928c 323d 062e 5a3d 772b 933b e652 01bd
00000030: 59f2 763c 2db0 733c 08fc 6a3d ba37 4f3c
00000040: e090 863c b621 34bc 2c7a 17bd 9486 88bc
00000050: 0fbe bb3c b0f5 2f3d 340c 36bc 53eb b0bd
00000060: 0af0 37bc c7e7 4cbc 6856 48bd cb21 48bd
00000070: 2af6 573c 4168 9f3b 089e 62bd 3ca9 42bd
00000080: 0e68 51bc 3312 743d ada3 983d 15f4 74bd
00000090: 20de 2ebd 0097 293d fd56 883d 1330 283d
000000a0: 6d7a 5bbd d8dc 1bbd a239 273d bbd2 f63c
000000b0: c326 ddbc 68ae 6cbd 9a82 bd3c 6612 883d
000000c0: 2dac e63c b8dc 0dbe be50 17bd 96a3 a53c
000000d0: 1fab 4a3d 5b6f df3b a3b1 0438 1639 173c
000000e0: 5817 453d 9400 4cbd dc41 f6bd a131 b03b
000000f0: 23fc 8e3c 58b8 b9bd e017 a2bd a597 f63b
00000100: 5674 483d f57b 6a3c cd1d d0bd 37ca fcbd
00000110: 0eb5 88bd d05f b0bd 2117 293c f1e4 563c
00000120: 0b9b ef3b a71e f13c 7953 963b 8433 83bd
00000130: 52d5 213c 966b 5f3c adac 57bd 3fe0 79bd
00000140: c5d8 17bd dea0 5fbc eb5d 0cbc dbb5 1fbd
00000150: eab0 a9bc 2962 0ebc ecbb 733d c34b 223c
00000160: 579f 7e3c 490f dc3c 8bdd c73c 6a1d c43c
00000170: 865c 7c3d 3851 1b3c dea4 08bd cdd7 843c
00000180: 5b15 143d 6b72 cdbc 56c5 cdbc 6d64 203d
00000190: 6b98 79bd 8c5e 0c3c 9a62 2c3d 5236 4ebc
000001a0: cad2 8abd 8752 a7bc bdac 213d 959f 483d
000001b0: 259d 74bd ad5f 223d 53fe 20bd 55f1 233c
000001c0: f6a1 32bc 89ff e8bd 894a 273d 6b0e 47bd
000001d0: 1c81 7ebc ebfd 87bd 14a5 1dbd 0977 20bc
000001e0: 864c 87bd 94e9 0bbd 6e10 93bd 5e50 8ebd
000001f0: 98a3 06bc bb84 493d c315 603d 8f88 2cbd
00000200: db7b f83a 7b90 33bd e356 863c 2cf9 ed3c
00000210: c1a2 6abc 4ecd 3bbd 1ac3 943d f3c4 383d
00000220: 4413 893c c513 aa3b 0725 81bc e324 a73d
00000230: c015 283c cf7d 3ebd da41 c83c d160 3f3c
00000240: cc2a 4b3d 7d61 50bc fc81 5abd 4663 6ebd
00000250: 56c7 22bd 51c3 103d 9e6d 613b 76c4 78ba
00000260: 8191 abbb c049 11bd a8d7 93bd b2a4 c83d
00000270: fdd7 8e3d 2560 b03c ec81 5abc 78ae 4c3c
00000280: d0d8 ce3d fcd0 2abc 762a 2dbd 6365 9abd
00000290: bda5 1cbd 8792 f23c 607f 70bd 236b dabd
000002a0: d92e cdbd 099d 01be 98cb f5bc f6cd cbbc
000002b0: 362a 2b3d bb35 643d e9dc d13d cb3f b7bd
000002c0: 95dd 19bb c4e5 c63d c8ef 5c3d 66b1 443d
000002d0: 9da3 a7bd 818f 44bc 1e74 1e3b 4b9c 9abc
000002e0: 4516 adbc 8f87 1fbd caa6 283d f26a 243d
000002f0: ae8a 4dbb 67d2 a9bd 1cf2 71bd 12f1 b3bc
00000300: 9fe0 43bc eaee f6bc ba86 43bd a20f 5fbc
00000310: 9269 b83b da6f 96bb ea43 34bd 475f bebd
00000320: 776b c63c ca36 fdbc bb63 14bc 2ba8 98bd
00000330: 7ed0 eebd 5a6b 02bc dcdb b63c 9bf0 2ebd
00000340: d231 983b 39f3 b0bd 4300 c43c e04f 36bc
00000350: 0fe8 69bd 51d7 98bd 02bc f2bd 6caf 663d
00000360: 1085 d4bc d9cc 26bd e351 bfbb b4c0 10bb
00000370: 035c 603c 4445 09bd 35f9 113c 4a51 f83c
00000380: 4ce6 753c 1b79 a7bd 5d9d e0bd b41e dbbd
00000390: 21de 81bc 7f6c 373a aa42 29bd 1a50 a9bd
000003a0: a3d8 3cbd d8d3 0b3d d8ec 6d3d 9ec6 a2bd
000003b0: 8598 78bd e319 243c 8ad5 db3b 83d5 99bc
000003c0: 7ca5 a5ba c008 843d 5c3f a43d 71d6 863d
000003d0: 208a 8b3c cd43 50bd c9f6 aa3c 8d14 bf3d
000003e0: 39f3 f13d a051 1d3c acf5 123d 4cd6 833d
000003f0: c979 993d fcab eb3b 933a 81bd 6503 1539

37 f4 [32]
-0.1447609 -0.7306013 0.17160761 -0.24887681 -0.26892847 -0.49156925 -0.42714673 -0.13836044
-0.3077802 0.17679965 -1.0281724 0.055647135 -1.2895546 -0.4413712 -0.47933337 -0.6144903
-0.23381305 -0.56833047 -0.014479399 -1.3686359 -0.2991357 -1.0217401 -0.53985035 -0.061441064
-0.7090605 -1.223981 -0.83708763 -0.098153055 0.035000563 -0.46513987 -0.2598065 -1.4838653
00000000: 343c 14be b008 3bbf e8b9 2f3e 90d9 7ebe
00000010: feb0 89be f7ae fbbe fab2 dabe 5cae 0dbe
00000020: 5e95 9dbe f80a 353e 279b 83bf 40ee 633d
00000030: 2010 a5bf 68fb e1be 2f6b f5be 3c4f 1dbf
00000040: b06c 6fbe 1b7e 11bf 003b 6dbc 762f afbf
00000050: 5128 99be 61c8 82bf a233 0abf a0a9 7bbd
00000060: fd84 35bf 69ab 9cbf 604b 56bf 7804 c9bd
00000070: c05c 0f3d d026 eebe 5c05 85be 4cef bdbf
